…
2022-06-28 01:54:49.500726: I tensorflow/compiler/xla/service/service.cc:168] XLA service 0x233990c4200 initialized for platform Host (this does not guarantee that XLA will be used). Devices:
2022-06-28 01:54:49.500894: I tensorflow/compiler/xla/service/service.cc:176]   StreamExecutor device (0): Host, Default Version
Found 158 files belonging to 10 classes.
['八哥', '喜鹊', '孔雀', '海鸥', '画眉', '鸽子', '鹌鹑', '鹦鹉', '鹰隼', '麻雀']
Model: "sequential"
_________________________________________________________________
Layer (type)                 Output Shape              Param #
=================================================================
rescaling (Rescaling)        (None, 224, 224, 3)       0
_________________________________________________________________
conv2d (Conv2D)              (None, 222, 222, 32)      896
_________________________________________________________________
max_pooling2d (MaxPooling2D) (None, 111, 111, 32)      0
_________________________________________________________________
conv2d_1 (Conv2D)            (None, 109, 109, 64)      18496
_________________________________________________________________
max_pooling2d_1 (MaxPooling2 (None, 54, 54, 64)        0
_________________________________________________________________
flatten (Flatten)            (None, 186624)            0
_________________________________________________________________
dense (Dense)                (None, 128)               23888000
_________________________________________________________________
dense_1 (Dense)              (None, 10)                1290
=================================================================
Total params: 23,908,682
Trainable params: 23,908,682
Non-trainable params: 0
_________________________________________________________________
Epoch 1/50
42/42 [==============================] - ETA: 0s - loss: 2.2584 - accuracy: 0.17482022-06-28 01:55:07.196535: W tensorflow/core/lib/png/png_io.cc:88] PNG warning: iCCP: known incorrect sRGB profile
…
